…
 num_heads          | 4                   
 num_layers         | 1                   
 num_neg            | 1                   
 num_workers        | 0                   
 optimizer          | Adam                
 random_seed        | 0                   
 save_final_results | 1                   
 test_all           | 0                   
 topk               | 5,10,20,50          
===========================================
INFO:root:Device: cuda
INFO:root:Load corpus from ..\data\Grocery_and_Gourmet_Food\SeqReader.pkl
INFO:root:#params: 605056
INFO:root:BSARec(
  (i_embeddings): Embedding(8714, 64)
  (p_embeddings): Embedding(21, 64)
  (transformer_block): ModuleList(
    (0): BSARecBlock(
      (layer): BSARecLayer(
        (filter_layer): FrequencyLayer(
          (out_dropout): Dropout(p=0, inplace=False)
          (LayerNorm): LayerNorm()
        )
        (attention_layer): MultiHeadAttention(
          (q_linear): Linear(in_features=64, out_features=64, bias=True)
          (k_linear): Linear(in_features=64, out_features=64, bias=True)
          (v_linear): Linear(in_features=64, out_features=64, bias=True)
        )
      )
      (LayerNorm1): LayerNorm()
      (dropout1): Dropout(p=0, inplace=False)
      (feed_forward): PositionwiseFeedForward(
        (w_1): Linear(in_features=64, out_features=256, bias=True)
        (w_2): Linear(in_features=256, out_features=64, bias=True)
        (dropout): Dropout(p=0, inplace=False)
      )
      (LayerNorm2): LayerNorm()
      (dropout2): Dropout(p=0, inplace=False)
    )
  )
)
INFO:root:Test Before Training: (HR@5:0.0482,NDCG@5:0.0289,HR@10:0.0938,NDCG@10:0.0435,HR@20:0.1956,NDCG@20:0.0689,HR@50:0.4969,NDCG@50:0.1277)
INFO:root:Optimizer: Adam
INFO:root:Namespace(model_name='BSARec', model_mode='')
INFO:root:--------------------------------------------- BEGIN: 2025-11-02 17:48:11 ---------------------------------------------
…
