…
 main_metric        |                     
 num_heads          | 4                   
 num_layers         | 2                   
 num_neg            | 1                   
 num_workers        | 5                   
 optimizer          | Adam                
 random_seed        | 0                   
 save_final_results | 1                   
 test_all           | 1                   
 topk               | 5,10,20,50          
===========================================
INFO:root:Device: cuda
INFO:root:Load corpus from data/MovieLens_1M/ML_1MTOPK/SeqReader.pkl
INFO:root:#params: 303680
INFO:root:BSARec(
  (i_embeddings): Embedding(3126, 64)
  (p_embeddings): Embedding(51, 64)
  (transformer_block): ModuleList(
    (0-1): 2 x BSARecBlock(
      (layer): BSARecLayer(
        (filter_layer): FrequencyLayer(
          (out_dropout): Dropout(p=0, inplace=False)
          (LayerNorm): LayerNorm()
        )
        (attention_layer): MY_MultiHeadAttention_Full(
          (q_linear): Linear(in_features=64, out_features=64, bias=True)
          (k_linear): Linear(in_features=64, out_features=64, bias=True)
          (v_linear): Linear(in_features=64, out_features=64, bias=True)
          (out_linear): Linear(in_features=64, out_features=64, bias=True)
          (dropout): Dropout(p=0.1, inplace=False)
          (layer_norm): LayerNorm((64,), eps=1e-12, elementwise_affine=True)
        )
      )
      (feed_forward): PositionwiseFeedForward(
        (w_1): Linear(in_features=64, out_features=256, bias=True)
        (w_2): Linear(in_features=256, out_features=64, bias=True)
        (dropout): Dropout(p=0, inplace=False)
      )
      (LayerNorm2): LayerNorm()
      (dropout2): Dropout(p=0, inplace=False)
    )
  )
)
INFO:root:Test Before Training: (HR@5:0.0013,NDCG@5:0.0007,HR@10:0.0020,NDCG@10:0.0009,HR@20:0.0040,NDCG@20:0.0014,HR@50:0.0118,NDCG@50:0.0029)
INFO:root:Optimizer: Adam
INFO:root:Epoch 1     loss=0.2951 [49.1 s]	dev=(HR@5:0.0532,NDCG@5:0.0327) [0.7 s] *
INFO:root:Epoch 2     loss=0.1762 [48.7 s]	dev=(HR@5:0.0842,NDCG@5:0.0538) [0.8 s] *
INFO:root:Epoch 3     loss=0.1433 [50.8 s]	dev=(HR@5:0.0994,NDCG@5:0.0629) [0.8 s] *
…
