…
 main_metric        |                     
 num_heads          | 4                   
 num_layers         | 2                   
 num_neg            | 1                   
 num_workers        | 5                   
 optimizer          | Adam                
 random_seed        | 0                   
 save_final_results | 1                   
 test_all           | 0                   
 topk               | 5,10,20,50          
===========================================
INFO:root:Device: cpu
INFO:root:Load corpus from data/MovieLens_1M/ML_1MTOPK/SeqReader.pkl
INFO:root:#params: 301760
INFO:root:BSARec(
  (i_embeddings): Embedding(3126, 64)
  (p_embeddings): Embedding(21, 64)
  (transformer_block): ModuleList(
    (0-1): 2 x BSARecBlock(
      (layer): BSARecLayer(
        (filter_layer): FrequencyLayer(
          (out_dropout): Dropout(p=0, inplace=False)
          (LayerNorm): LayerNorm()
        )
        (attention_layer): MY_MultiHeadAttention_Full(
          (q_linear): Linear(in_features=64, out_features=64, bias=True)
          (k_linear): Linear(in_features=64, out_features=64, bias=True)
          (v_linear): Linear(in_features=64, out_features=64, bias=True)
          (out_linear): Linear(in_features=64, out_features=64, bias=True)
          (dropout): Dropout(p=0.1, inplace=False)
          (layer_norm): LayerNorm((64,), eps=1e-12, elementwise_affine=True)
        )
      )
      (feed_forward): PositionwiseFeedForward(
        (w_1): Linear(in_features=64, out_features=256, bias=True)
        (w_2): Linear(in_features=256, out_features=64, bias=True)
        (dropout): Dropout(p=0, inplace=False)
      )
      (LayerNorm2): LayerNorm()
      (dropout2): Dropout(p=0, inplace=False)
    )
  )
)
INFO:root:Namespace(model_name='BSARec', model_mode='')
INFO:root:--------------------------------------------- BEGIN: 2025-12-01 11:06:14 ---------------------------------------------
INFO:root:
===========================================
 Arguments          | Values               
===========================================
 alpha              | 0.3                 
…
 main_metric        |                     
 num_heads          | 4                   
 num_layers         | 2                   
 num_neg            | 1                   
 num_workers        | 5                   
 optimizer          | Adam                
 random_seed        | 0                   
 save_final_results | 1                   
 test_all           | 0                   
 topk               | 5,10,20,50          
===========================================
INFO:root:Device: cuda
INFO:root:Load corpus from data/MovieLens_1M/ML_1MTOPK/SeqReader.pkl
INFO:root:#params: 303680
INFO:root:BSARec(
  (i_embeddings): Embedding(3126, 64)
  (p_embeddings): Embedding(51, 64)
  (transformer_block): ModuleList(
    (0-1): 2 x BSARecBlock(
      (layer): BSARecLayer(
        (filter_layer): FrequencyLayer(
          (out_dropout): Dropout(p=0, inplace=False)
          (LayerNorm): LayerNorm()
        )
        (attention_layer): MY_MultiHeadAttention_Full(
          (q_linear): Linear(in_features=64, out_features=64, bias=True)
          (k_linear): Linear(in_features=64, out_features=64, bias=True)
          (v_linear): Linear(in_features=64, out_features=64, bias=True)
          (out_linear): Linear(in_features=64, out_features=64, bias=True)
          (dropout): Dropout(p=0.1, inplace=False)
          (layer_norm): LayerNorm((64,), eps=1e-12, elementwise_affine=True)
        )
      )
      (feed_forward): PositionwiseFeedForward(
        (w_1): Linear(in_features=64, out_features=256, bias=True)
        (w_2): Linear(in_features=256, out_features=64, bias=True)
        (dropout): Dropout(p=0, inplace=False)
      )
      (LayerNorm2): LayerNorm()
      (dropout2): Dropout(p=0, inplace=False)
    )
  )
)
INFO:root:Test Before Training: (HR@5:0.0414,NDCG@5:0.0236,HR@10:0.0912,NDCG@10:0.0394,HR@20:0.1924,NDCG@20:0.0648,HR@50:0.4969,NDCG@50:0.1241)
INFO:root:Optimizer: Adam
INFO:root:Epoch 1     loss=0.2934 [30.1 s]	dev=(HR@5:0.4098,NDCG@5:0.2790) [0.3 s] *
INFO:root:Epoch 2     loss=0.1770 [29.7 s]	dev=(HR@5:0.4664,NDCG@5:0.3242) [0.3 s] *
INFO:root:Epoch 3     loss=0.1429 [29.0 s]	dev=(HR@5:0.4918,NDCG@5:0.3470) [0.3 s] *
…
