…
 main_metric        |                     
 num_heads          | 1                   
 num_layers         | 2                   
 num_neg            | 1                   
 num_workers        | 5                   
 optimizer          | Adam                
 random_seed        | 0                   
 save_final_results | 1                   
 test_all           | 0                   
 topk               | 5,10,20,50          
===========================================
INFO:root:Device: cuda
INFO:root:Load corpus from data/Grocery_and_Gourmet_Food/SeqReader.pkl
INFO:root:#params: 601152
INFO:root:SASRec(
  (i_embeddings): Embedding(8714, 64)
  (p_embeddings): Embedding(21, 64)
  (transformer_block): ModuleList(
    (0-1): 2 x TransformerLayer(
      (masked_attn_head): MultiHeadAttention(
        (q_linear): Linear(in_features=64, out_features=64, bias=True)
        (k_linear): Linear(in_features=64, out_features=64, bias=True)
        (v_linear): Linear(in_features=64, out_features=64, bias=True)
      )
      (layer_norm1): LayerNorm((64,), eps=1e-05, elementwise_affine=True)
      (dropout1): Dropout(p=0, inplace=False)
      (linear1): Linear(in_features=64, out_features=64, bias=True)
      (linear2): Linear(in_features=64, out_features=64, bias=True)
      (layer_norm2): LayerNorm((64,), eps=1e-05, elementwise_affine=True)
      (dropout2): Dropout(p=0, inplace=False)
    )
  )
)
INFO:root:Test Before Training: (HR@5:0.0484,NDCG@5:0.0290,HR@10:0.0967,NDCG@10:0.0444,HR@20:0.1965,NDCG@20:0.0694,HR@50:0.4919,NDCG@50:0.1270)
INFO:root:Optimizer: Adam
INFO:root:Epoch 1     loss=0.5045 [7.1 s]	dev=(HR@5:0.2971,NDCG@5:0.2011) [0.5 s] *
INFO:root:Epoch 2     loss=0.3926 [7.0 s]	dev=(HR@5:0.3475,NDCG@5:0.2358) [0.5 s] *
…
 main_metric        |                     
 num_heads          | 1                   
 num_layers         | 2                   
 num_neg            | 1                   
 num_workers        | 5                   
 optimizer          | Adam                
 random_seed        | 0                   
 save_final_results | 1                   
 test_all           | 1                   
 topk               | 5,10,20,50          
===========================================
INFO:root:Device: cuda
INFO:root:Load corpus from data/Grocery_and_Gourmet_Food/SeqReader.pkl
INFO:root:#params: 603072
INFO:root:SASRec(
  (i_embeddings): Embedding(8714, 64)
  (p_embeddings): Embedding(51, 64)
  (transformer_block): ModuleList(
    (0-1): 2 x TransformerLayer(
      (masked_attn_head): MultiHeadAttention(
        (q_linear): Linear(in_features=64, out_features=64, bias=True)
        (k_linear): Linear(in_features=64, out_features=64, bias=True)
        (v_linear): Linear(in_features=64, out_features=64, bias=True)
      )
      (layer_norm1): LayerNorm((64,), eps=1e-05, elementwise_affine=True)
      (dropout1): Dropout(p=0, inplace=False)
      (linear1): Linear(in_features=64, out_features=64, bias=True)
      (linear2): Linear(in_features=64, out_features=64, bias=True)
      (layer_norm2): LayerNorm((64,), eps=1e-05, elementwise_affine=True)
      (dropout2): Dropout(p=0, inplace=False)
    )
  )
)
INFO:root:Test Before Training: (HR@5:0.0009,NDCG@5:0.0005,HR@10:0.0015,NDCG@10:0.0007,HR@20:0.0025,NDCG@20:0.0009,HR@50:0.0063,NDCG@50:0.0017)
INFO:root:Optimizer: Adam
INFO:root:Epoch 1     loss=0.5054 [6.9 s]	dev=(HR@5:0.0167,NDCG@5:0.0098) [2.4 s] *
INFO:root:Epoch 2     loss=0.3906 [7.3 s]	dev=(HR@5:0.0166,NDCG@5:0.0101) [2.7 s] *
…
