…
 main_metric        |                     
 num_heads          | 2                   
 num_layers         | 2                   
 num_neg            | 1                   
 num_workers        | 5                   
 optimizer          | Adam                
 random_seed        | 0                   
 save_final_results | 1                   
 test_all           | 0                   
 topk               | 5,10,20,50          
===========================================
INFO:root:Device: cuda
INFO:root:Load corpus from data/MovieLens_1M/ML_1MTOPK/SeqReader.pkl
INFO:root:#params: 243520
INFO:root:SASRec(
  (i_embeddings): Embedding(3126, 64)
  (p_embeddings): Embedding(21, 64)
  (transformer_block): ModuleList(
    (0-1): 2 x TransformerLayer(
      (masked_attn_head): MultiHeadAttention(
        (q_linear): Linear(in_features=64, out_features=64, bias=True)
        (k_linear): Linear(in_features=64, out_features=64, bias=True)
        (v_linear): Linear(in_features=64, out_features=64, bias=True)
      )
      (layer_norm1): LayerNorm((64,), eps=1e-05, elementwise_affine=True)
      (dropout1): Dropout(p=0, inplace=False)
      (linear1): Linear(in_features=64, out_features=64, bias=True)
      (linear2): Linear(in_features=64, out_features=64, bias=True)
      (layer_norm2): LayerNorm((64,), eps=1e-05, elementwise_affine=True)
      (dropout2): Dropout(p=0, inplace=False)
    )
  )
)
INFO:root:Test Before Training: (HR@5:0.0484,NDCG@5:0.0291,HR@10:0.0960,NDCG@10:0.0443,HR@20:0.1858,NDCG@20:0.0666,HR@50:0.4819,NDCG@50:0.1244)
INFO:root:Optimizer: Adam
INFO:root:Epoch 1     loss=0.2419 [34.8 s]	dev=(HR@5:0.4645,NDCG@5:0.3213) [0.2 s] *
INFO:root:Epoch 2     loss=0.1516 [40.7 s]	dev=(HR@5:0.4899,NDCG@5:0.3440) [0.2 s] *
…
 main_metric        |                     
 num_heads          | 2                   
 num_layers         | 2                   
 num_neg            | 1                   
 num_workers        | 5                   
 optimizer          | Adam                
 random_seed        | 0                   
 save_final_results | 1                   
 test_all           | 0                   
 topk               | 5,10,20,50          
===========================================
INFO:root:Device: cuda
INFO:root:Load corpus from data/MovieLens_1M/ML_1MTOPK/SeqReader.pkl
INFO:root:#params: 245440
INFO:root:SASRec(
  (i_embeddings): Embedding(3126, 64)
  (p_embeddings): Embedding(51, 64)
  (transformer_block): ModuleList(
    (0-1): 2 x TransformerLayer(
      (masked_attn_head): MultiHeadAttention(
        (q_linear): Linear(in_features=64, out_features=64, bias=True)
        (k_linear): Linear(in_features=64, out_features=64, bias=True)
        (v_linear): Linear(in_features=64, out_features=64, bias=True)
      )
      (layer_norm1): LayerNorm((64,), eps=1e-05, elementwise_affine=True)
      (dropout1): Dropout(p=0, inplace=False)
      (linear1): Linear(in_features=64, out_features=64, bias=True)
      (linear2): Linear(in_features=64, out_features=64, bias=True)
      (layer_norm2): LayerNorm((64,), eps=1e-05, elementwise_affine=True)
      (dropout2): Dropout(p=0, inplace=False)
    )
  )
)
INFO:root:Test Before Training: (HR@5:0.0522,NDCG@5:0.0312,HR@10:0.1013,NDCG@10:0.0469,HR@20:0.2077,NDCG@20:0.0736,HR@50:0.5125,NDCG@50:0.1330)
INFO:root:Optimizer: Adam
INFO:root:Epoch 1     loss=0.2418 [32.6 s]	dev=(HR@5:0.4676,NDCG@5:0.3274) [0.4 s] *
INFO:root:Epoch 2     loss=0.1484 [30.2 s]	dev=(HR@5:0.4949,NDCG@5:0.3476) [0.3 s] *
…
