…
 optimizer          | Adam                
 random_seed        | 0                   
 save_final_results | 1                   
 test_all           | 0                   
 topk               | 5,10,20,50          
===========================================
INFO:root:Device: cuda
INFO:root:Reading data from "data/", dataset = "MovieLens_1M/ML_1MTOPK" 
INFO:root:Counting dataset statistics...
INFO:root:"# user": 6032, "# item": 3125, "# entry": 574197
INFO:root:Appending history info...
INFO:root:Save corpus to data/MovieLens_1M/ML_1MTOPK/SeqReader.pkl
INFO:root:#params: 243520
INFO:root:SASRec(
  (i_embeddings): Embedding(3126, 64)
  (p_embeddings): Embedding(21, 64)
  (transformer_block): ModuleList(
    (0-1): 2 x TransformerLayer(
      (masked_attn_head): MultiHeadAttention(
        (q_linear): Linear(in_features=64, out_features=64, bias=True)
        (k_linear): Linear(in_features=64, out_features=64, bias=True)
        (v_linear): Linear(in_features=64, out_features=64, bias=True)
      )
      (layer_norm1): LayerNorm((64,), eps=1e-05, elementwise_affine=True)
      (dropout1): Dropout(p=0, inplace=False)
      (linear1): Linear(in_features=64, out_features=64, bias=True)
      (linear2): Linear(in_features=64, out_features=64, bias=True)
      (layer_norm2): LayerNorm((64,), eps=1e-05, elementwise_affine=True)
      (dropout2): Dropout(p=0, inplace=False)
    )
  )
)
INFO:root:Test Before Training: (HR@5:0.0484,NDCG@5:0.0291,HR@10:0.0960,NDCG@10:0.0443,HR@20:0.1858,NDCG@20:0.0666,HR@50:0.4819,NDCG@50:0.1244)
INFO:root:Optimizer: Adam
INFO:root:Epoch 1     loss=0.2466 [32.7 s]	dev=(HR@5:0.4645,NDCG@5:0.3206) [0.2 s] *
INFO:root:Early stop manually
INFO:root:Namespace(model_name='SASRec', model_mode='')
…
 main_metric        |                     
 num_heads          | 1                   
 num_layers         | 2                   
 num_neg            | 1                   
 num_workers        | 5                   
 optimizer          | Adam                
 random_seed        | 0                   
 save_final_results | 1                   
 test_all           | 1                   
 topk               | 5,10,20,50          
===========================================
INFO:root:Device: cuda
INFO:root:Load corpus from data/MovieLens_1M/ML_1MTOPK/SeqReader.pkl
INFO:root:#params: 245440
INFO:root:SASRec(
  (i_embeddings): Embedding(3126, 64)
  (p_embeddings): Embedding(51, 64)
  (transformer_block): ModuleList(
    (0-1): 2 x TransformerLayer(
      (masked_attn_head): MultiHeadAttention(
        (q_linear): Linear(in_features=64, out_features=64, bias=True)
        (k_linear): Linear(in_features=64, out_features=64, bias=True)
        (v_linear): Linear(in_features=64, out_features=64, bias=True)
      )
      (layer_norm1): LayerNorm((64,), eps=1e-05, elementwise_affine=True)
      (dropout1): Dropout(p=0, inplace=False)
      (linear1): Linear(in_features=64, out_features=64, bias=True)
      (linear2): Linear(in_features=64, out_features=64, bias=True)
      (layer_norm2): LayerNorm((64,), eps=1e-05, elementwise_affine=True)
      (dropout2): Dropout(p=0, inplace=False)
    )
  )
)
INFO:root:Test Before Training: (HR@5:0.0013,NDCG@5:0.0010,HR@10:0.0028,NDCG@10:0.0015,HR@20:0.0073,NDCG@20:0.0026,HR@50:0.0184,NDCG@50:0.0047)
INFO:root:Optimizer: Adam
INFO:root:Epoch 1     loss=0.2458 [37.5 s]	dev=(HR@5:0.0666,NDCG@5:0.0416) [0.8 s] *
INFO:root:Epoch 2     loss=0.1523 [38.7 s]	dev=(HR@5:0.0878,NDCG@5:0.0564) [0.8 s] *
…
